Resources/Models/SAC.onnx (onnx, 657953 bytes, 10 tensors)

actor.0.weight f4 [128, 84]
00000000: 8cad bbbe db10 b0be 7058 74be b459 a0be
00000010: 13ff 943e 77d1 aa3d ad8e ce3e 0a4b c13d
00000020: be70 383d bdd3 90bc f0d5 dbbd a74e b2bd
00000030: 28db 2d3d e526 f4bd ad75 7a3d d985 12bd
00000040: 2901 913b 1184 f23a 6356 1b3d 362c 99bc
00000050: 87c6 2a3d 8806 5d3c f833 4f3d 1a79 763a
00000060: aee9 253f 5a97 96bf 4991 99c0 672c 15c0
00000070: 8efd 20c0 d374 a93e 9bb7 3b3c 2f27 8dbc
00000080: b666 123d 99bd 19bd b047 bcbd 4364 02bc
00000090: 08e7 c33c 1df3 52bc 78e8 06bd 372d d03d
000000a0: 7319 53bd 3a2e 30bc 15c9 643d cda2 f6bd
000000b0: dea5 a4bd c724 d0bd 7f9a 8cbb 828b c6bd
000000c0: 9b23 10bc 11ec 09be 4982 29be bfbf 9dbe
000000d0: dc76 37be 0beb c7bd ed9e 083e 710e 1ebe
000000e0: d756 3f3d e036 42be 0a19 873d a8ca 263e
000000f0: 2c93 973e 7929 0ebd 225c d63d 7731 4a3e
00000100: 0f17 263e a9ea 253e b90a 7f3e 0a93 843c
00000110: 4561 01bb 0bf1 8f3e 89fe 9d3e 2b27 fb3b
00000120: d422 193e 99d3 5a3e c92c ca3c 1e22 6d3d
00000130: f9f4 a13e 38fe 2b3d 2918 dbbd 1c72 3a3f
00000140: f6b6 38be 0cb0 9abe 0db7 14bf 9c63 3f3c
00000150: c3ef d5bd bbff 42bd 858f 16bd adc0 d0bb
00000160: 3add 0dbd b464 183d 7e60 b2bc f85c 0c3e
00000170: 0b50 e73d c3b4 a33c 4fe5 613d e451 ac3c
00000180: e273 37bd f5e3 c8bc b086 143d cae1 06bd
00000190: 196f e33c 1afd 4ebc 11ce 4c3d 1d0a 35bd
000001a0: c63a 18bc 9d18 ffba aac7 6e3e 43ea f240
000001b0: f35a a83b 97e7 8e3c 9c76 b4bb 4113 583c
000001c0: 331d 50bd 8ee6 ac39 bd49 6b3c 1647 cb3b
000001d0: d849 a2bc d7de 5cbb 8172 4ebc 1908 473d
000001e0: 24a5 973d 13fd 0a3d 4a8f 29bc 8bef b0bb
000001f0: 548b b4bc 9fd3 bc3c 16c4 3dbc 6d41 49bc
00000200: 7ac3 1bbd cc31 75bd 732f e5ba 7d59 31bc
00000210: 4c83 ff3c ef31 523c ae5a 46bc a2fe 54bd
00000220: 7afe 84bb c82a 16bd 8009 65ba 1b98 0b3d
00000230: 2300 14ba c946 aebc 6abd 81bc bd92 48bc
00000240: bf6e 14bd ddc5 17bc b420 b1bb ee49 1dbd
00000250: 91b4 2dbc 40f3 7c3a 29c0 dfbc 3c73 c03c
00000260: 5d93 103b 97d9 963b da39 b0bc 4ede e0bc
00000270: 2c16 fdbc dbbe 8ebc 1cdb 773b b887 bd3c
00000280: 22c3 a5bc 5397 98ba b791 fd3d 8aa0 803d
00000290: ed44 573d 66b8 193d f7e2 4cbd 9693 cb3d
000002a0: c973 613e 5ad2 4a3d 19f4 963e 8cfc b43c
000002b0: 933b c9be 3bb4 b43e c0e1 ed3c 32d9 00be
000002c0: d796 03be 51de 8fbe ad0d c83e 6cf9 023f
000002d0: dad8 97bc 797e 9fbd 8849 a1bd 417a 013e
000002e0: 51bc 85bd 8842 4c3d e5f0 093d 03ef b2bb
000002f0: cbc0 a3bd 02f0 55bc 750d f8bd 7a32 b83d
00000300: 807c 0bbc 90de fe3c 6867 d1bc b374 b83d
00000310: ac66 6f3d 8154 1a3e 7168 82bd abd9 a93d
00000320: fcf0 d5bc 22b6 1cbd 48ba a8bd 9408 123e
00000330: 273a 8bbd c42a a23c f832 17be 8d45 aa3c
00000340: feb7 aabd be6a 36bd eb4d f8bc 532d 02bd
00000350: 227d f4bd f56c 0a3c 0d77 f8bd 4d46 89bd
00000360: 7f8b 933d 4ab2 94bd d493 24be df97 40bc
00000370: 8a30 e33c b19d 30bd 11d2 0a3e 4612 a73b
00000380: 6045 593d 9cfe c0bd 52f3 993d d7c7 24be
00000390: eaa8 493d 39d9 ac3d 7c65 103e 3a03 9fbc
000003a0: 5ea3 e7bb e213 01be 0316 88bd 7584 153e
000003b0: 2dda 973e b00b 0a3b 78be 5cbd d020 75bd
000003c0: eb85 44be 28ef f33c 680e ee3d b2ba b8bc
000003d0: be93 1e3c 7d77 a8bd 6297 5ebd 19b2 07bf
000003e0: cda1 4abd c1ac 083e eb5e 0a3f a96f 0dbf
000003f0: 43b9 84bf d905 e4be 5ec2 22be 856b 2fbd
-0.36655843 -0.3438786 -0.23861861 -0.31318438 0.29100856 0.083407335 0.40343228 0.09438141
0.045029394 -0.01767909 -0.10734165 -0.08706408 0.04244533 -0.11921481 0.06114738 -0.03577218
0.004425187 0.0018502494 0.03792418 -0.01869784 0.041693237 0.013490327 0.05058667 0.0009402201
0.6480969 -1.1764939 -4.798985 -2.330835 -2.5154757 0.33096942 0.011457349 -0.017230598
0.035742484 -0.03753433 -0.09193361 -0.007958475 0.023913875 -0.012875346 -0.032936543 0.10164874
-0.051537942 -0.010753209 0.05585583 -0.120427705 -0.08039449 -0.10163265 -0.0042908783 -0.09694578
-0.0087975515 -0.13468958 -0.16553606 -0.30810353 -0.17916435 -0.09761628 0.13341875 -0.15435196
0.046713676 -0.18966246 0.06596573 0.16288245 0.2960447 -0.03470752 0.10466792 0.19745432
0.16219734 0.16202797 0.24906434 0.016183395 -0.0019741815 0.2811359 0.30858257 0.0076645813
0.14954692 0.2136978 0.024679558 0.057893865 0.31632212 0.04199049 -0.106979676 0.7283037
-0.18038544 -0.30212438 -0.58091813 0.011681464 -0.104461215 -0.047607165 -0.036757965 -0.006370625
-0.034634806 0.037205413 -0.021774527 0.1370734 0.11294564 0.019983655 0.055150326 0.021035142
-0.04478825 -0.02452276 0.03626126 -0.032930173 0.027762936 -0.012633586 0.050001208 -0.044199098
-0.009291356 -0.0019462291 0.23318353 7.5910964 0.005137795 0.017444415 -0.0055073034 0.013188184
-0.050809097 0.00032978173 0.014360842 0.0062035425 -0.019810602 -0.0033702159 -0.012600542 0.048591707
0.07404545 0.033932757 -0.010349104 -0.0053996495 -0.022039093 0.023050128 -0.011582395 -0.012283665
-0.038028218 -0.059861943 -0.0017485454 -0.010824558 0.031190537 0.012829288 -0.012106581 -0.05200065
-0.0040586563 -0.036661893 -0.00087370723 0.034080606 -0.00056457723 -0.021273987 -0.01583739 -0.012242016
-0.03623843 -0.009263483 -0.00540551 -0.038400583 -0.010602132 0.0009649284 -0.027313309 0.023492448
0.0022060492 0.0046035754 -0.02151196 -0.027449753 -0.030894361 -0.017424991 0.0037819808 0.023136005
-0.020234648 -0.0011641778 0.123813085 0.062806204 0.052555967 0.03752937 -0.050021138 0.09940259
0.22016825 0.049517013 0.29483107 0.02209308 -0.39303264 0.35293755 0.02903831 -0.12582853
-0.1285051 -0.280993 0.39072934 0.5116184 -0.01853602 -0.077877946 -0.07875353 0.12644292
-0.06530059 0.049868137 0.033677 -0.0054606213 -0.07995757 -0.013057711 -0.12111942 0.08994003
-0.00851357 0.031111985 -0.025562003 0.090066336 0.058447525 0.15071298 -0.06367577 0.0829347
-0.026115887 -0.038259633 -0.08238655 0.14261085 -0.06798201 0.019795783 -0.14765537 0.020785118
-0.08335875 -0.04453539 -0.030310592 -0.031781506 -0.1193793 0.008448829 -0.12132082 -0.06702862
0.07204341 -0.072605684 -0.16072017 -0.011754959 0.027733106 -0.043119136 0.13556696 0.005098614
0.053044677 -0.09423563 0.07517113 -0.16091858 0.049233355 0.084398694 0.14101213 -0.019410718
-0.0070690354 -0.12605241 -0.066448234 0.1460131 0.29658642 0.0021064095 -0.053892583 -0.059845746
-0.1919171 0.029777125 0.116238415 -0.02254996 0.009678779 -0.082259156 -0.05434359 -0.5300613
-0.04947071 0.1334715 0.54051083 -0.55248505 -1.0369037 -0.4453571 -0.15894458 -0.042827148

actor.0.bias f4 [128]
00000000: fc45 15c0 369a ac40 5a65 5ac0 e77f 6840
00000010: 7951 0140 485c a23f ea7f 2ec0 de06 0c41
00000020: d4a4 42c0 01bc b2c0 3577 f7bf e356 aec0
00000030: 162c 88c0 97b5 5140 42eb 87bf d470 46bf
00000040: 03c5 83bf f956 4ac0 e779 5240 f923 b7bf
00000050: 794b 7e40 1782 4940 f2ab 81c0 7f28 7540
00000060: c64b 2a3f 94aa 8fbf dd05 0341 f7c4 443f
00000070: 234d 3d3f 83df a0be 3647 1ec0 3602 c340
00000080: 1127 ac40 c986 9540 8338 b2c0 4575 8dbf
00000090: cd07 e83f 8a5f f73f 99a6 a440 74ad 5c3f
000000a0: 93e2 88bf ca0e 5bbf 44db 2fc0 301c b9c0
000000b0: f90a 69c0 f7ca adbf fbec 67c0 6b46 07c0
000000c0: e46d 4fbf e5d6 10bf 6bf6 5cc0 85dd 4fbf
000000d0: 4a97 52bf 3cd0 64bf c785 fe3f 1683 8ebf
000000e0: c0a7 34c0 2196 40c0 190f 3040 f4b3 d0bf
000000f0: a89e 8d40 a153 2440 f4a4 913e 45ab 8dbe
00000100: f74b 52c0 3c77 0840 627e 6640 aaf3 8dbf
00000110: 68c3 c9bf 475c 79c0 3eeb 3340 905a 25c0
00000120: 08b1 13c0 d738 ce3e 43ff f83e 6c99 15c0
00000130: 9ecc 6fc0 0c00 f23f 01a9 a33d b1b8 603d
00000140: 577b afc0 db34 91bf 84e8 a33e 9456 9140
00000150: a4ee 153f 6d78 813f 570c a9bc 2a42 653d
00000160: 99a7 f2be 7313 1dc0 b921 3040 9dbb a540
00000170: 7dd2 af3e 4d0d f2c0 f144 883e de81 c33f
00000180: c10d 0440 094c 4d40 8d6f d63e 63d1 dd3f
00000190: f759 db40 380c 3ebf d0bb 47bf 02ea 2bc0
000001a0: 92bd 13c0 3326 8a40 8238 7ebf 3673 ecc0
000001b0: 69dd cc3b d925 85c0 b0ae 3841 b0b5 81bf
000001c0: 431c 0841 6b3b e3c0 f5b9 0940 61ab aebf
000001d0: 0e85 fa3f 7417 47c0 506b eb3f 6854 0ac0
000001e0: bed0 3bc0 7e0b a63f 0450 6740 6af9 5040
000001f0: 7cd5 24bf 39db 8240 9959 3840 574f 5c3e
-2.3323965 5.3938246 -3.412436 3.6328065 2.0205977 1.2684412 -2.7265573 8.751677
-3.0413103 -5.5854497 -1.9333254 -5.4481063 -4.2553816 3.2767084 -1.061867 -0.7751591
-1.0294498 -3.1615584 3.2886903 -1.4307853 3.9733565 3.148565 -4.0522394 3.8305967
0.6652187 -1.1223931 8.188931 0.76863045 0.73945826 -0.31420526 -2.4730964 6.09402
5.379769 4.6727033 -5.5693984 -1.1051413 1.8127381 1.9326031 5.1453366 0.8620217
-1.0694145 -0.8556944 -2.747758 -5.784691 -3.6412947 -1.3577565 -3.6238391 -2.113673
-0.81027055 -0.56577903 -3.4525402 -0.81197387 -0.822621 -0.8938024 1.9884576 -1.1133754
-2.8227386 -3.0091631 2.7509215 -1.6304917 4.425617 2.5676043 0.28446162 -0.2766973
-3.2858865 2.1322775 3.6014638 -1.1089985 -1.5762758 -3.8962572 2.811233 -2.5836525
-2.3076801 0.4027774 0.4863225 -2.3374891 -3.7468638 1.8906264 0.07991219 0.054863635
-5.483806 -1.1344255 0.32013333 4.5418186 0.5856726 1.0114876 -0.020635767 0.055971302
-0.47393492 -2.454312 2.7520583 5.179152 0.34340277 -7.5641236 0.26615098 1.5274007
2.0633395 3.2077658 0.41881981 1.7329525 6.854732 -0.74237394 -0.78020954 -2.6861577
-2.3084455 4.317163 -0.99304974 -7.389064 0.00625198 -4.16087 11.542648 -1.0133572
8.5069 -7.101003 2.151975 -1.3646051 1.9571855 -3.1108065 1.8392124 -2.1614017
-2.9346156 1.2972257 3.6142588 3.265223 -0.6438825 4.0892606 2.8804686 0.21514641

actor.2.weight f4 [64, 128]
00000000: 2581 eebd aaf8 aebd fb17 1f3f befa 58be
00000010: 4750 b2bb 7650 183e 92d8 633c 9e1c 2a3e
00000020: a57b 873d be57 bdbd b91e 933e d901 833d
00000030: 2c21 fd3e bc17 143c f693 06bd cc85 0d3e
00000040: 7634 c13c 68e1 9f3d d839 de3d 5142 32be
00000050: 685c 62bf dede 4abf 2bba 5b3e 965f 07bd
00000060: 95d2 fc3d 91e9 453d 285c 6c3d 7d57 923d
00000070: ed41 6f3e 8040 c1bd 9d42 3ebf 8004 28be
00000080: ac08 52be 99ac 23bc 2769 143e 8e9a 3f3d
00000090: 30a5 aa3c e52c d73b c237 3e3e 0256 cd3d
000000a0: aadc 793d 105c d9bc e21a f73d 6656 973d
000000b0: 67b3 aa3d bae0 dbbe e601 34be c504 f8bd
000000c0: 0ba1 4d3e 25dd 02bf dcf4 1ebd b7a2 933f
000000d0: 1b36 37be 3dd8 903e 1021 e93d 43b6 873d
000000e0: a09f 983e f51c 9ebd 4bd5 47bd 5c69 7d3e
000000f0: 4a9f 75be 2f51 12bf 857c f4bd 27c8 59bd
00000100: 16c6 2abd bd14 26be 3159 b7bd 9242 9f3e
00000110: 0198 e9be 81b4 e6bc 1f2f 3abe 04e3 90bc
00000120: 9467 11bf 12f9 01be fc24 8fbf dd26 813d
00000130: 1ccc 403f b331 aabe fba0 41bf eac9 b1bc
00000140: d3f2 343d a361 9fbe c60c 1a3d 62c7 903f
00000150: 8121 77be b532 13be 798a afbe dab0 633d
00000160: 372c d93d 05d6 ae3e 44a2 8bbe 698b a4bc
00000170: d400 91bf 163b 13be bb12 d8bc 3d2b 853e
00000180: a3db 83bd dd37 243f fb0d 02be 73b1 ccbb
00000190: cf0e 663d f8e1 bc3d 0614 80be 4d31 0abc
000001a0: 6793 57bd 05e0 4bbe 0638 cabd 0dad f3be
000001b0: 449a 033b f2a8 2d3f 0617 a33e 11e2 393d
000001c0: 562f e23e efe5 3ebd 2da0 6c3f 393f 56be
000001d0: ae5c 6f3e 1d3e d13e 512c f1bc 108f 57bd
000001e0: 8d36 6c3c 46d2 d33d 8e8b a73e 1fb6 313e
000001f0: a412 493d dec7 74be 15be b4be e9a4 383d
00000200: e250 82be 9a34 a7be 3ba0 a4bf fc60 b03e
00000210: 9e95 4d3e ca9d e03e 5672 52bd 89a2 8d3d
00000220: 48cb a43e 0dbc b73e 93d8 4b3f 4710 d43e
00000230: 5e81 87bf 4d92 8e3d 8a4f 923b 28b6 19bd
00000240: 66d7 a9be 0822 44bf d603 24be b6e3 143f
00000250: 30bd ba3f 9e15 bc3f c971 2cbf e8db 0c3f
00000260: 476a b73e f9e9 743c c661 c5bd 7c1e bdbe
00000270: 8818 ce3e 69f2 e53e 5cae 0340 7ba0 21bc
00000280: 37ec 1e3d 6fb9 28be aa9b a33e 54e1 66be
00000290: 7d9f 0cbf ee95 b53e fcf2 343e 97b5 f2bd
000002a0: 15d8 653e b98f 853f e692 84bf 1e4a 2e3e
000002b0: b0c0 c2bf c2d6 80be ff39 71be 17e5 1d3f
000002c0: c8a8 cd3c b7fe 9b3e bf80 2abf 4869 a1be
000002d0: ddae ac3e a461 763e 7d18 2bbf 8025 6fbe
000002e0: 51f0 7d3e 5973 353e f44f f63e d364 87be
000002f0: 4022 b13f 81ef 3a3f 2382 d9be 1267 e03d
00000300: 8cd1 c1be 688a d3be 7202 3d3f 9406 923e
00000310: a022 9c3e 4017 cbbe bf8d 9fbf edb7 053f
00000320: 1417 1ebf be4c 023e 841f b2be bc84 993c
00000330: 6d98 83bf 9984 ddbe 9d1b 97be 478b 4ebf
00000340: 90c1 26bd 7950 993e c808 5fbe 2d7d 83bf
00000350: 4a7e 043f 936f a03d 464e cd3e 3052 bbbc
00000360: 736e d83e 7503 14bf 4fb4 90be e5be 683e
00000370: b341 863d 01ce 0c3e 98a1 73bf 42a3 673d
00000380: 823f 0d3f 2a4b afbf c4c4 a43e a83c 39be
00000390: e67b 94be 7615 3140 8f2d 5bbd 4651 8dbd
000003a0: 796f 9abd 1380 953f b557 5bbe f1e3 abbe
000003b0: 729e a23e 06f5 8fbf d719 13be 0810 60bd
000003c0: 5389 18be 152f 39bd daa3 70be 6e6c 04bf
000003d0: 6d01 25be cc11 b7be fec4 56bd 1abc 5c3f
000003e0: 40ca c2bd 84dd 16be 41d8 6dbf d6fb 6c3f
000003f0: 0dc3 f53e fe29 8d3c a510 853f 6e33 31be
-0.11645726 -0.08543523 0.62145966 -0.211894 -0.0054416987 0.14874443 0.013906615 0.16612479
0.0661538 -0.09245251 0.28734377 0.06396837 0.4943937 0.009038862 -0.03285595 0.1382057
0.023584586 0.07806665 0.108508766 -0.1740811 -0.8842225 -0.7924632 0.21457736 -0.033050142
0.12344853 0.04831845 0.057705075 0.07145593 0.23364992 -0.094361305 -0.74320394 -0.16407967
-0.2051112 -0.009989881 0.14493237 0.046778254 0.02083072 0.006566631 0.18575957 0.1002617
0.061001457 -0.026533157 0.12065674 0.07389526 0.083349995 -0.4294489 -0.17578849 -0.12110285
0.20080964 -0.5111869 -0.038807735 1.1534032 -0.17891733 0.28289977 0.11383259 0.066265605
0.29809284 -0.07720367 -0.048787396 0.24747223 -0.23986545 -0.57155126 -0.11937813 -0.053169396
-0.041692816 -0.16218849 -0.08952559 0.31105477 -0.45623782 -0.028162243 -0.18182038 -0.017686374
-0.5679867 -0.12692669 -1.1183162 0.06306241 0.75311446 -0.33241042 -0.7563626 -0.021702725
0.044176888 -0.31129178 0.037609838 1.1310847 -0.24133874 -0.14374812 -0.34285334 0.05558858
0.106041364 0.3414766 -0.27272236 -0.020086007 -1.1328378 -0.14378008 -0.026376119 0.2600955
-0.06438377 0.6414774 -0.12700646 -0.0062467395 0.056166466 0.092227876 -0.25015277 -0.008434606
-0.05263081 -0.19909675 -0.09873967 -0.47592965 0.0020080963 0.67835915 0.31853503 0.04538161
0.4417674 -0.046606 0.9243191 -0.20922555 0.23375198 0.408677 -0.029440077 -0.05262667
0.014417303 0.10342841 0.3272366 0.1735463 0.049090043 -0.23904368 -0.3530127 0.045079146
-0.25452334 -0.3265732 -1.2861398 0.34448993 0.20076606 0.43870384 -0.05137857 0.06915767
0.3218634 0.3588566 0.7962734 0.4141867 -1.0586355 0.069614984 0.004465048 -0.037527233
-0.33172148 -0.7661443 -0.16017088 0.5815996 1.4588985 1.4694097 -0.6736112 0.5502305
0.3582327 0.014948362 -0.096377894 -0.3693732 0.4025309 0.44911507 2.057517 -0.009864922
0.03879949 -0.16476987 0.319547 -0.22546893 -0.5493086 0.3546595 0.17670816 -0.11851042
0.2244571 1.0434486 -1.035733 0.17020461 -1.5215054 -0.25163847 -0.2355728 0.6167769
0.025104895 0.3046777 -0.666027 -0.31525636 0.3372716 0.24060684 -0.6683424 -0.23354149
0.24798705 0.17719783 0.48107874 -0.2644411 1.3838577 0.73021704 -0.424821 0.10957159
-0.37855184 -0.41316533 0.73831856 0.28520644 0.30495167 -0.39666176 -1.2465132 0.52233773
-0.61753964 0.12724587 -0.3478967 0.01874005 -1.0280892 -0.43265226 -0.29513255 -0.8068127
-0.04071194 0.29944208 -0.21780694 -1.0272576 0.517552 0.07833781 0.4009878 -0.022866338
0.42271766 -0.57817775 -0.28262565 0.2272907 0.065555 0.13750459 -0.9516845 0.05655218
0.5517503 -1.3694813 0.3218137 -0.18089545 -0.29000777 2.7669349 -0.053510245 -0.06900267
-0.07540793 1.167971 -0.21420176 -0.33572343 0.3176151 -1.124665 -0.14365326 -0.05470279
-0.14896135 -0.045210917 -0.23500004 -0.5172795 -0.16113825 -0.35755765 -0.05243396 0.8622452
-0.095112324 -0.14732939 -0.929081 0.9257177 0.48000374 0.017231937 1.0395705 -0.17304775

actor.2.bias f4 [64]
00000000: 7a2d 5abf 0746 5d3f 1aa3 3abf 0f36 23bf
00000010: 56ca b43f bf4f 4e3e d5a2 9bbf 7e4e 72bf
00000020: 23d5 6dbf 3ab2 68bf e038 033e 2fb0 293f
00000030: 166d 04bf ff62 66bf 0506 fc3c 6185 42bf
00000040: 307b 8a3e 375d 973f 3205 833f 069f 663f
00000050: 8363 133f 5d0f a1be 24f6 bd3e 7276 3e3f
00000060: adfb 44bf e873 19be e79f 33bf 9127 21bf
00000070: fb37 e43f ad1b 383e 5280 8abf a203 9f3e
00000080: 887e 2d3e 0abf 83bf 4ce2 833f 219d 21bf
00000090: c0df aa3e 6f87 d03d 5cc3 46bf c6bb 5abc
000000a0: 33fe 123f e4f8 f1bd 11ee 7d3f 36cd 883f
000000b0: 3563 53bf 775d e7be 4080 8dbe 0a44 e8bc
000000c0: 175b 10bf b604 95bf c5e7 2b3f c45e 873f
000000d0: ecfd 843e b427 263d 3c1e c3bc dfa7 023f
000000e0: 731d 153f 4f3e aabe bb31 513f 0255 99be
000000f0: ded9 a4bf 754d 51bf 3503 19bf 9bd6 adbf
-0.8522564 0.8643498 -0.72905123 -0.6375436 1.4124248 0.20147608 -1.2159067 -0.9465102
-0.92903346 -0.9089695 0.12814665 0.6628446 -0.5172895 -0.89994806 0.03076459 -0.7598477
0.2704711 1.1825322 1.023596 0.900864 0.5757372 -0.31457034 0.37101853 0.74399483
-0.76946527 -0.14985621 -0.70165867 -0.62951 1.7829584 0.17979307 -1.082041 0.3105746
0.16942799 -1.0292675 1.0303435 -0.63130385 0.33373833 0.10182082 -0.77641845 -0.013350433
0.5741913 -0.1181505 0.99191386 1.0687625 -0.8257325 -0.45188496 -0.2763691 -0.028352756
-0.5638899 -1.1642063 0.6715053 1.0575795 0.25974977 0.040565208 -0.023818128 0.510374
0.5824806 -0.33250663 0.8171651 -0.29947668 -1.2878988 -0.81758815 -0.5977052 -1.3581117

actor.4.weight f4 [32, 64]
00000000: ec19 583e f6c2 a4bf cb6f 66bf 14e4 6a3c
00000010: 0804 37bd 36b0 993e a0fb aebe 8b7a 673c
00000020: a267 403f a090 ac3e a80e d2bd fecb e6bf
00000030: faa0 0b3d a248 87bc e38f b23d 235c 25be
00000040: dbc6 52ba 5276 263e 6925 66bd bca1 4b3e
00000050: 4a21 343d 4eea 3c3d 7777 19bd 95e5 1fbd
00000060: cbc8 eabe e174 83be b1e6 5e3b 0be0 903d
00000070: 0cb9 643e 8e43 923e cdd4 c2be 2a9e 473b
00000080: 9f03 1e3f 1c88 0c3c fd2b 8a3c f1a7 463e
00000090: 3b48 b33d a092 773e 13a3 de3f c426 86bc
000000a0: a7c6 1b3d 9eff 79bd aa2c 65be 504d dc3d
000000b0: 1109 39be eafa 0bbe 24cf f23d 2ea1 1cbe
000000c0: ce9d 173e 07a3 513d f1b4 0d3c b0fa af3c
000000d0: 4758 4cbd cf52 fdbe 9fee d03c a113 133e
000000e0: bd49 4f3d f818 5f3e 0e4b 86be d248 eb3b
000000f0: 0365 753e 33ac e5bd 5932 e73b bd52 5f3e
00000100: 52c8 8cbd 3eef 32bd f6ed 193c 85aa bd3e
00000110: 4269 34bc 7f96 8cb9 6fd9 c63c 7c61 15bd
00000120: 4bd9 63bf d682 2bbd fa0e b0bb 79bf c2b9
00000130: f2c3 3b3b 43b6 21bf e560 e53b 4e06 b9ba
00000140: bb88 c3ba 3ec4 afbd fee8 323c 5049 113c
00000150: 3ebf cd3c a03d 2c3c 7a4f 0bbc 73a7 01bc
00000160: edbf 47bc 0b84 d2bc c866 97bf 0a9e 7cbc
00000170: e039 93be 0fde d8be cb96 22bd feed db3b
00000180: 1806 fd3b 1168 0f3c a91d 63bc bfdd 52bc
00000190: a25c 8e3b feea 713f 62a3 a2bc 7ba5 0f3b
000001a0: 3c2b 223c 6f8a 64bb f6b6 45be 2528 bdbb
000001b0: 3a45 96bd 5f92 cb3e 3293 5fbc 1659 dfba
000001c0: 0589 a1bc b96c 83bb 1dcf a3bc 8018 1e3f
000001d0: 2682 20bf 7750 27bc 70e7 4f3b 43d6 c5bb
000001e0: 3424 683b f92e b03c 520f 2fbf 9855 3dbc
000001f0: 8631 133f aa52 53bf 7a62 75bb 2748 14bd
00000200: 3124 e2bc cee6 59bc 09e3 c1bb 6ce1 593f
00000210: dfe9 33bb dd4d 95b7 fff7 833c bff0 5f3d
00000220: d536 92be fd7b 5cbc 7b9f 86bb b069 6d3b
00000230: d75c 613b 529b a2be 2fd6 39bb fad9 f2bb
00000240: ff31 a8ba dbff 05bd 301a 373b 1887 59bd
00000250: 6537 823b 95fc cf3c 17d3 62bb 59bb 8fbc
00000260: 706f f13a ea30 fcbb 4ee5 72bf 8600 6ebc
00000270: 0cef 19bf 947e c7bd 4239 4e3c acb1 7aba
00000280: 923d 0b3a b69a edba 507c 1dbc ad32 be3a
00000290: 9811 053b 2b86 c73e eb7c 8dbc e3e4 273b
000002a0: 12c5 c039 4723 c7bb c27e 02bf 4324 62bb
000002b0: 0f52 f5bc b704 613e d2a6 96bc d31a 8cbb
000002c0: 37cf 95ba ea82 933a 2a51 8a3a d0c3 983e
000002d0: 44ff 96bf e441 9bbb 1c3f 2d3b 884e 2abb
000002e0: b10d f2bc 9802 e43b a878 21bf c623 68bb
000002f0: db22 753f ed94 bdbe 7583 b4ba 18f2 01bc
00000300: 22fc ce3f fe77 f63c 4a03 4cbd 89f7 2f3e
00000310: 8b3b 54c0 0664 cdbf 0048 a93e 3a11 b93e
00000320: 93a8 bcbe 0ec8 573e fb56 b9bf 6592 eebe
00000330: 742a 823e 6215 773f e273 00bf f07b 913c
00000340: 12a8 bdbe 9c5e 1bbf 887c 1a3f 2907 6dbe
00000350: cb4f 8bbd 9275 853e 9b4c 2c3f c62a 5dbf
00000360: 1246 b53e 28d8 cabd f7f1 9d3d 9ecb 3dbf
00000370: 5779 84be 9274 19bf b5c3 a8bd b5b3 bc3e
00000380: 1174 b4be 771d cf3d c764 36bf 0366 4cbe
00000390: 4cb2 a63c b80b ac3e 06e2 b13d d4dd 51bf
000003a0: bb60 71be cf80 2a3e dc37 c9be 6e99 6c3e
000003b0: f21d 8abf 8a47 123f 56d8 33be cc7d 84bd
000003c0: fe3b 7a3f 6c95 073f 949c da3d 80ce 903e
000003d0: 6222 b73d 9e5c 273e 2e71 41be b6c9 2abf
000003e0: d184 80be 1112 7cbe 7446 2bbd 9fb3 f73e
000003f0: 556f 8e3d b75c debe 59c1 9dbd 7d95 8b3e
0.21103638 -1.2871997 -0.9001433 0.014336605 -0.04468158 0.3001725 -0.3417635 0.014128338
0.7515813 0.3370409 -0.10256702 -1.8031003 0.034089066 -0.016514126 0.087188505 -0.16148429
-0.0008040496 0.16256073 -0.05618802 0.19885916 0.04397706 0.046121888 -0.037467446 -0.039037306
-0.45856318 -0.2567511 0.0034012015 0.07073983 0.22336215 0.28567165 -0.3805298 0.0030459263
0.61724275 0.008577373 0.016866678 0.19400002 0.08754011 0.24177027 1.7393516 -0.016375907
0.038031247 -0.06103479 -0.22380319 0.10756934 -0.18069865 -0.13669935 0.11855915 -0.1529586
0.14806291 0.051180866 0.008649097 0.021481842 -0.049888875 -0.4947724 0.025504408 0.14362957
0.05060743 0.21786869 -0.26229137 0.0071803117 0.23964314 -0.11214485 0.0070555625 0.21808906
-0.068741456 -0.04368519 0.009395113 0.3704416 -0.011011424 -0.0002681501 0.024273602 -0.03646992
-0.8900344 -0.04187282 -0.005372879 -0.00037145222 0.0028650728 -0.63168734 0.007000076 -0.0014116259
-0.0014918068 -0.08582352 0.0109198075 0.008867577 0.025115605 0.010512739 -0.008502835 -0.007913458
-0.012191755 -0.025697729 -1.1828241 -0.015418539 -0.28755093 -0.42356917 -0.03969459 0.0067117205
0.0077216737 0.008752839 -0.013862052 -0.012870251 0.004344539 0.94499195 -0.019853298 0.0021918702
0.009898003 -0.0034872552 -0.19308075 -0.005772608 -0.07337423 0.3976011 -0.013645934 -0.00170401
-0.019718656 -0.0040107635 -0.01999622 0.61756134 -0.6269859 -0.010212055 0.003172364 -0.006037505
0.003542197 0.021506773 -0.6838275 -0.011556052 0.5749744 -0.8254801 -0.003744273 -0.036201622
-0.027605148 -0.013299657 -0.0059169573 0.8510959 -0.002745263 -1.7798442e-05 0.016109465 0.054672953
-0.2855746 -0.0134572955 -0.004108367 0.0036226325 0.0034387612 -0.31759125 -0.0028356423 -0.0074112387
-0.0012832283 -0.032714706 0.0027939193 -0.05310735 0.0039738887 0.025388995 -0.0034610683 -0.017545389
0.0018420052 -0.0076962607 -0.9488114 -0.014526492 -0.6013038 -0.0974094 0.0125868935 -0.00095632183
0.0005311604 -0.0018127772 -0.009612158 0.0014510952 0.0020304676 0.3896955 -0.01727148 0.0025618605
0.00036767923 -0.0060772034 -0.5097467 -0.0034506477 -0.029946355 0.21974455 -0.018390093 -0.0042756586
-0.0011429553 0.0011254225 0.0010552753 0.29836893 -1.1796651 -0.0047380794 0.0026435321 -0.002598675
-0.029547544 0.006958317 -0.6307473 -0.0035421713 0.9575631 -0.37027684 -0.0013772087 -0.007931255
1.6170695 0.030086514 -0.049807824 0.17184271 -3.3161342 -1.604615 0.33062744 0.36145955
-0.36847362 0.21072409 -1.4479669 -0.46596065 0.25423014 0.96517 -0.50176823 0.017759293
-0.3704229 -0.6069124 0.6034627 -0.23147263 -0.06802329 0.26066262 0.6730439 -0.8639339
0.35405022 -0.0990451 0.07712167 -0.7413882 -0.25873825 -0.599435 -0.08240453 0.36855856
-0.35244802 0.10113042 -0.71247524 -0.1996079 0.02034869 0.3360269 0.08685689 -0.8197911
-0.23572056 0.16650699 -0.3930043 0.23105404 -1.0790389 0.5714041 -0.17562994 -0.06469306
0.9774779 0.52962375 0.10674396 0.28282547 0.08942105 0.16343924 -0.18890831 -0.66714036
-0.2510133 -0.24616267 -0.041815236 0.48379228 0.06954829 -0.4343011 -0.07702894 0.27262488

actor.4.bias f4 [32]
00000000: 3df3 b5be a1e4 b53d 526e 01bf fa95 54bf
00000010: 77e9 c2be 58f1 333f 26b9 3b3f 19af 4b3e
00000020: f460 99bb b917 12be 5cc9 c53d 3977 973e
00000030: 0bfe 063e 51d4 d3be 94c3 893f ba63 5f3d
00000040: a168 e63e 78ef 693f 85a5 86be 6fab 713f
00000050: 11d8 033f 4d23 2bbe faf1 2dbe 984d 033e
00000060: 4050 8bbf a265 e9be e81b 953e 3dfc 11be
00000070: 3c0b 973e 13fd 083f dfc9 123f dc04 50bd
-0.3553714 0.08881498 -0.5055896 -0.83041346 -0.38068745 0.70290136 0.7332939 0.19891013
-0.004680747 -0.14266862 0.09657547 0.29583147 0.13182847 -0.41372922 1.0762811 0.054538466
0.450017 0.91381025 -0.26298156 0.9440221 0.51501566 -0.16712685 -0.16986838 0.12822568
-1.0883865 -0.45585352 0.29122853 -0.14256378 0.2950076 0.5351116 0.5733928 -0.050785884

mean.weight f4 [6, 32]
00000000: cc74 593c b24a 4d3c 29a7 843c e605 533e
00000010: 9780 e3bf d825 8dbc e9cc 29bc 9a94 25ba
00000020: 145e 90bf 7852 85bf ee7e 2abc e467 c43c
00000030: 5795 8abb d8b5 d63b 3b22 b53a e6d8 e7be
00000040: a465 b23f 17d1 ffbd a05b e6bc fe68 54bb
00000050: 96de 7bbc 41ef 573d a5b8 103e b11d 73bb
00000060: b99f ac3e 32a0 fbbb faa5 07bc b3a7 013b
00000070: c0cc 02bf 7eb2 3ebb 01f8 d43f f4c9 b5bc
00000080: acb7 343c 4e81 263c 7c9d 05bb c964 68bf
00000090: c044 01ba 7e75 d13f e7c0 f2b9 0adc 5ebf
000000a0: 8407 0b3d dc9d 003c 3efa 0b40 8fa9 463b
000000b0: da2d 413d aaa3 083c b0a9 57bb 8048 913f
000000c0: f321 86bc 705a 223e ad6c ff3b 8d2c 6db9
000000d0: 478d 7cbb 3d8b f6bb 8f92 55bd d514 1abf
000000e0: 935b 7dbc 628b 073d 66b7 17ba ba48 103b
000000f0: 1476 ae3a a098 1dbc c843 d1bb ed7e ecbb
00000100: 1706 693f 2463 a1bb ca1b 2a3c 9ab4 993d
00000110: aa05 6c3b c468 ffbb be26 abbf 51af fc3b
00000120: ebd3 8c3c 37b1 693a eaee 43b9 7900 9a3b
00000130: 766d c3bb df83 2b3b 10ee dc3b ab32 f13e
00000140: 464f ed3c 368b 273f 8c7f 5a3c f5ce 033c
00000150: 3489 e7bf 0ff4 41bc caa5 1a40 2b71 16bd
00000160: 64c9 66be 4d2c 803d 2f3c 993f ff6a 403f
00000170: 4a25 69bb 554e c33b 16e5 66bb a920 8abc
00000180: b3f1 ebbc 29b4 15c0 7a4c 02c0 9f9e 5d3c
00000190: d41a d33b 8e12 97bc 4d45 5c3b 9694 783b
000001a0: 177a d7bb 3278 ad3b 575e 16bc 523a d4bb
000001b0: 3eff 723b e26d b4ba c9b8 1dbc 8ffd 4abe
000001c0: 867e fabc b8ce da3b 9e65 3f3b d389 ef3a
000001d0: 8025 183d 49d0 f93b b748 bebd e3b1 06bd
000001e0: b548 58bf 82e6 9bbc 7ffb aebb 4a10 69bc
000001f0: 2589 82bb f895 6fbb 35f1 c4bb fcb3 e4bc
00000200: ce82 e1bc 9391 00bc 5eb7 07bc 49b3 d13e
00000210: ac73 dcbb 27bb a63c 738d 4cbc b9d4 f0bb
00000220: ed10 12bd 0f66 35bc 55ba b33b 90ab d23b
00000230: 84a4 ea3f d7c8 d5ba bc5b 9bba 67e2 67be
00000240: 70dd 283d 6e0b 823c a754 c43b aac1 59bb
00000250: b282 573d 136a 41bc 6392 5abd 7060 6bbd
00000260: a522 51be a2b0 b8bc 400c bc3a c252 c23b
00000270: 7ca0 25ba d2c8 743f 4c44 203c 8f55 15c0
00000280: 51de 83b9 5d87 3e3b ac83 9e3b 7587 27bc
00000290: 5d95 c3bb 0e10 1f3c da7c 79bb b9fc 97bb
000002a0: fae6 883c 7ebf 86bb dcf3 88bb a710 a0bb
000002b0: 4808 c03b 7988 a7bf 1e1a 95ba c96f 2bbe
000002c0: 7ccd 9dbc 52f8 153f e7d8 0240 11f5 a63f
000002d0: fc98 c63a 0a36 31bf 8a14 9cbc 65f6 463c
000002e0: 1fce a43e 82b3 d23d f2de 99ba b686 08bb
000002f0: 234c 28bb d00b 9eba 9902 1e3b ce16 efba
0.013272475 0.012530016 0.01619299 0.20607719 -1.7773618 -0.01722996 -0.010363796 -0.0006316394
-1.127871 -1.0415792 -0.010406239 0.02397532 -0.0042292285 0.006552439 0.0013819406 -0.45282668
1.3937268 -0.124910526 -0.028119862 -0.0032411213 -0.015372893 0.052718405 0.14132936 -0.0037096555
0.3371561 -0.007679009 -0.008279318 0.0019783794 -0.51093674 -0.002909809 1.6638185 -0.022191025
0.011030119 0.010162665 -0.0020388057 -0.90778786 -0.0004931204 1.6363981 -0.0004630156 -0.870545
0.033942714 0.007850137 2.1871486 0.0030313467 0.047162868 0.008339802 -0.0032907538 1.135025
-0.01637361 0.15854812 0.0077949376 -0.00022618678 -0.0038536356 -0.0075239227 -0.052141722 -0.6018804
-0.0154637275 0.03309191 -0.00057875214 0.0022016005 0.0013310337 -0.009618908 -0.006386254 -0.007217279
0.9102492 -0.0049251486 0.010382602 0.0750515 0.0036014118 -0.0077944715 -1.3371198 0.007711329
0.017190894 0.00089146517 -0.00018685652 0.0046997634 -0.0059639765 0.002617113 0.0067422464 0.4710897
0.028968465 0.65446794 0.013336074 0.008044948 -1.8088746 -0.011837973 2.416369 -0.03672902
-0.22537762 0.0625845 1.1971492 0.75163263 -0.0035575205 0.0059602656 -0.003523176 -0.016861277
-0.028801775 -2.339121 -2.0359178 0.013526588 0.006442407 -0.018441465 0.0033610642 0.003793036
-0.0065758335 0.0052938694 -0.009177766 -0.006476679 0.0037078406 -0.0013765658 -0.009626576 -0.19823287
-0.03057791 0.006677475 0.0029204856 0.0018275328 0.037145138 0.0076237065 -0.09291213 -0.03288449
-0.8448594 -0.019030813 -0.0053400393 -0.014225075 -0.003983634 -0.0036557894 -0.0060101994 -0.027917854
-0.027528193 -0.007847208 -0.008283464 0.40957096 -0.0067276563 0.020352913 -0.012484896 -0.0073495773
-0.035660673 -0.011071696 0.005484859 0.0064291432 1.8331456 -0.0016310465 -0.00118529 -0.2264496
0.041226804 0.01587459 0.0059915367 -0.0033227005 0.052614875 -0.011805075 -0.05336226 -0.057465017
-0.20423372 -0.022545163 0.0014346913 0.0059302757 -0.00063181645 0.9561893 0.009781908 -2.333347
-0.00025151906 0.0029072382 0.004837474 -0.010225167 -0.005968733 0.009708418 -0.0038068802 -0.004638281
0.0167117 -0.004112183 -0.004179461 -0.0048847976 0.005860362 -1.3088523 -0.0011375581 -0.16741861
-0.019263022 0.5858203 2.0444887 1.3043538 0.0015151794 -0.6922308 -0.019052763 0.012143706
0.32188508 0.10288145 -0.0011739417 -0.0020832247 -0.0025680147 -0.0012057964 0.0024110435 -0.0018241049

mean.bias f4 [6]
00000000: 9571 bbbe 9117 edbd 93fc 2b3e 0b28 113e
00000010: da8a 9e3e 8f78 6e3e
-0.36610094 -0.115767606 0.16795568 0.14175431 0.3096531 0.23288177

logstd.weight f4 [6, 32]
00000000: 1570 6cbf a0c6 183d aa49 373e c7cf 9bbe
00000010: 02de fcbf b0de 8abe 6d08 b33d 78c8 253c
00000020: 595a de3e f546 513e 4fe1 9bbd 6df6 0d40
00000030: 86a2 c6bd fdd0 113c 769c f4ba 2a52 d73e
00000040: 656a 22bf cce5 fe3e bde8 9d3d fadc ffbd
00000050: 2f99 48bf b668 1b3f e876 43bf 7ac0 493f
00000060: 89d3 323f 5daf 2c3e 36b3 433d b389 203e
00000070: 3105 fbbd 9de7 96bc b5b6 2cc0 36f7 083e
00000080: 49bf 81be 531f ebbc 0e06 b33c 034e 2f3f
00000090: c44b 5e3d aec0 dcbf eda6 9f3c baa4 8bbf
000000a0: 7473 c0bd 1a9d 5f3e ee6d d83f 4a1f 593f
000000b0: 09e8 c9b7 d67f b73c f002 15bd e19d 623e
000000c0: a621 fd3d b834 afbf b645 8c3d dd31 e0bc
000000d0: 59fe 01c0 a473 cebd 8671 8cbf fc70 45c0
000000e0: 5ec0 d7bf 686e cc3f b0e6 f938 d3e5 983d
000000f0: 4581 9a3e 1cd4 9e3d 38af dcbd 32a3 cebc
00000100: 4c59 923f b747 473d e5ab 973d 17ad 9cbf
00000110: f884 713e d6fb 8fbe 1104 a8bf abcc 013c
00000120: 5e0b 8bbe e5bd 003f 04de 003e eb0a 0d40
00000130: 0e37 483c 0790 b43c 9fbd 683c bae6 6e3f
00000140: ff97 b73d af71 96bf 932a dd3c 4088 f9bb
00000150: 250b 2140 a694 02bc bc17 153f 11a1 c13f
00000160: 5100 d6bf 5c89 c83f 046d 06c0 bd4a 57bc
00000170: 210f 453f 3782 52bd df8a bebb c8f2 dd3c
00000180: 4082 92be 9681 29c0 5398 b03f 8835 b5be
00000190: 454a f83b ff33 61be ae95 80bd cda4 82bd
000001a0: 9eb0 9c3e 66a2 073e 0c5e e23d f0e6 253f
000001b0: 86e8 79bd 7552 8abd 1442 e03f 851c e63d
000001c0: 3448 273e edc7 04bf c44b 3bba b5f1 bdbd
000001d0: 3871 e8be b6b0 9fbe 3350 8b3d 033f c53e
000001e0: a93b aebd 5464 ad3f 96e4 67bd c5cf 333d
000001f0: 60eb 573e 46f6 1ebe b075 8abd 6789 25be
00000200: 7731 4fbe 1228 f6bd aca5 95bc 755e acbe
00000210: 1419 02bc 278a 4f3d f96d 92bd 7d7f f8bc
00000220: 4e4e 0c3e 3f19 abbc 5d58 bb3d ee36 853d
00000230: 16a5 7cbf 1a26 5dbc c4b4 b8bc 33b3 cb3e
00000240: 5621 243d b157 b8be 25f6 90be aa16 903d
00000250: eaca 68bf 0e30 b8bf f7f0 59bf ec5e 9b3f
00000260: b0db 13bf 09f0 8540 cb6b fcbc b1f7 85bc
00000270: 45ca febb ba19 c0bf c3e8 30bd a776 53c0
00000280: 5dc3 73be 84d1 a1bd 130e 553d a681 b8bf
00000290: c27a 2dbe 1d65 a0bd 5c5b 0ebd 7221 78bd
000002a0: ab9a 2fbf b375 72bd 6b3a 7d3e 2127 5ebe
000002b0: 51f4 2d3d 41e2 e5be 98bb dcbd fcdc d13f
000002c0: f9ca 213f d220 9e3f aa7a 5b40 7769 2bc0
000002d0: 5977 143e 3bc7 8b40 c22c 95bf 3ccf 223f
000002e0: 1b3b f9bd 7715 2040 7604 2f3e 7314 47bd
000002f0: 9b15 193b 71e2 91bd ad29 aabc b276 2abe
-0.92358524 0.0372988 0.17899194 -0.3043196 -1.9755251 -0.27123022 0.087418415 0.010118596
0.43428305 0.20437224 -0.076113336 2.2181656 -0.09698968 0.008899924 -0.0018662352 0.42054874
-0.63443595 0.49784696 0.07710407 -0.1249332 -0.7835874 0.6070665 -0.7635331 0.7880932
0.6985403 0.16863771 0.04777833 0.15677528 -0.122568496 -0.018420989 -2.6986516 0.13375553
-0.25341251 -0.02870146 0.021853473 0.6847841 0.054271474 -1.7246301 0.019488776 -1.0909646
-0.09397021 0.21837273 1.6908548 0.8481337 -2.4069117e-05 0.022399824 -0.036379755 0.22130539
0.123599336 -1.3687963 0.06849234 -0.027367527 -2.0311491 -0.100806504 -1.0972145 -3.085021
-1.6855581 1.5971193 0.00011916214 0.074657105 0.3017675 0.077553004 -0.10775608 -0.025224302
1.1433501 0.048652377 0.07405833 -1.2240323 0.2358588 -0.28121823 -1.3126241 0.007922332
-0.2715711 0.50289756 0.12584692 2.2037914 0.012220157 0.022041334 0.014205365 0.9332081
0.08964538 -1.1753443 0.02699784 -0.007615119 2.5163052 -0.007970011 0.5823934 1.5127279
-1.6718847 1.5666919 -2.1004038 -0.013140378 0.7697621 -0.051393714 -0.0058148946 0.027093306
-0.28614998 -2.6485343 1.3796486 -0.35392404 0.007577213 -0.21992491 -0.06278549 -0.063790895
0.30603498 0.13245544 0.11053094 0.6480551 -0.061012767 -0.06754009 1.7520165 0.112359084
0.16336137 -0.5186756 -0.0007144774 -0.092746176 -0.4539888 -0.31189507 0.06802406 0.38524637
-0.08507473 1.3546243 -0.05661448 0.043899316 0.21085882 -0.15523633 -0.06760728 -0.16165696
-0.20233713 -0.120193616 -0.018267475 -0.33665815 -0.007940549 0.05066886 -0.07149882 -0.030334229
0.13701746 -0.020886062 0.09147713 0.06504618 -0.986894 -0.013497854 -0.022547133 0.39785156
0.040070854 -0.36004403 -0.28312793 0.07035573 -0.9093462 -1.4389665 -0.8513331 1.2138343
-0.5775709 4.185551 -0.030813118 -0.01635346 -0.0077755773 -1.5007851 -0.04319073 -3.304117
-0.23804994 -0.0790129 0.052015375 -1.4414566 -0.1694136 -0.07831786 -0.034755096 -0.06057877
-0.6859538 -0.059194278 0.24729316 -0.21694614 0.042469326 -0.4489918 -0.10777968 1.6395564
0.63200337 1.2353766 3.4293618 -2.678312 0.14498653 4.36807 -1.1654284 0.63597465
-0.121694766 2.50131 0.17091545 -0.048603486 0.0023358825 -0.071232684 -0.020771826 -0.16646841

logstd.bias f4 [6]
00000000: 47ba 1bbf 6115 9c3e 4939 9f3e ac36 2bbf
00000010: 0a7d 05bf 776b 1f3f
-0.6083111 0.3048506 0.31098393 -0.668803 -0.5214392 0.62273353
